predictions/jxz6vzoo/model_state_dict.pt (torch, 82949 bytes, 105 tensors)

in_c.0.0.weight f2 [4, 1, 3, 3]
0	0xb5ae	-0.355
1	0xa05d	-0.00852
2	0xb131	-0.1622
3	0xb602	-0.3755
4	0xaa99	-0.05154
5	0x3392	0.2366
6	0x18eb	0.002401
7	0xb2b0	-0.209
8	0x329e	0.2068
9	0xb5a1	-0.3518
10	0x2e28	0.0962
11	0x2b22	0.05573
12	0xafd9	-0.1226
13	0xae30	-0.0967
14	0x35a3	0.3523
15	0xb7dc	-0.4912
16	0x2cc7	0.07465
17	0x2f0d	0.11017
18	0x3056	0.1355
19	0x2e71	0.10065
20	0x3784	0.4697
21	0xb01d	-0.1285
22	0xb388	-0.2354
23	0xb593	-0.3484
24	0xb4b6	-0.2944
25	0xb609	-0.3772
26	0xb546	-0.3296
27	0x3759	0.4592
28	0x2f4f	0.1142
29	0xac27	-0.0649
30	0x312c	0.1616
31	0x2c31	0.0655
32	0xb068	-0.1377
33	0xa119	-0.00996
34	0xadb0	-0.08887
35	0xb03a	-0.1321

in_c.0.1.weight f2 [4]
0	0x3a4c	0.787
1	0x3a44	0.783
2	0x3af2	0.868
3	0x3dbb	1.433

in_c.0.1.bias f2 [4]
0	0xb1c5	-0.1803
1	0xaa6e	-0.05023
2	0xa4b0	-0.01831
3	0x3500	0.3125

in_c.0.1.running_mean f2 [4]
0	0x3e1d	1.528
1	0x3aaa	0.833
2	0x408a	2.27
3	0xba42	-0.782

in_c.0.1.running_var f2 [4]
0	0x4ac5	13.54
1	0x44bd	4.74
2	0x4f39	28.89
3	0x4448	4.28

in_c.1.0.weight f2 [16, 4, 3, 3]
0	0xaad7	-0.05344
1	0x28b5	0.03677
2	0x3409	0.2522
3	0x2d2c	0.0808
4	0x2f16	0.1107
5	0x2f81	0.11725
6	0x31c2	0.1799
7	0x3023	0.1293
8	0x2cea	0.0768
9	0x2f23	0.1115
10	0x1cb6	0.0046
11	0x2d4c	0.08276
12	0xaaa0	-0.05176
13	0x20d7	0.00945
14	0xabf5	-0.06216
15	0xaf85	-0.1175
16	0xa50a	-0.01968
17	0x2dd9	0.0914
18	0x2cbe	0.0741
19	0x3396	0.237
20	0x26d5	0.02669
21	0x2c92	0.0714
22	0x2c5f	0.0683
23	0x331d	0.2223
24	0x2f48	0.1138
25	0x2272	0.01259
26	0x2fb2	0.12024
27	0x2e10	0.0947
28	0x1d95	0.00545
29	0xb52d	-0.3235
30	0x3496	0.2866
31	0x26b7	0.02623
32	0x3552	0.3325
33	0xa9fd	-0.04678
34	0x2edd	0.10724
35	0xb2f6	-0.2175
36	0x1d99	0.005466
37	0x2c0b	0.0632
38	0x2c36	0.0658
39	0x30ea	0.1536
40	0xadb7	-0.0893
41	0x304f	0.1346
42	0x367b	0.405
43	0x2d98	0.0874
44	0xaee6	-0.1078
45	0x2349	0.01423
46	0x2453	0.01689
47	0x2500	0.01953
48	0x3229	0.1925
49	0x241f	0.0161
50	0x302c	0.1304
51	0x28f2	0.03864
52	0x343a	0.2642
53	0x247e	0.01755
54	0x2c81	0.0704
55	0x2c79	0.0699
56	0xad2f	-0.081
57	0x3514	0.3174
58	0x2ca6	0.07263
59	0xa923	-0.04013
60	0xb001	-0.1251
61	0xa5e0	-0.02295
62	0x2da0	0.0879
63	0xa835	-0.03287
64	0x2471	0.01735
65	0xad6c	-0.0847
66	0xaf12	-0.1105
67	0x3010	0.127
68	0xa731	-0.02809
69	0x1ab1	0.003267
70	0xb491	-0.2854
71	0x25c7	0.02257
72	0x3067	0.1376
73	0x2c69	0.0689
74	0x0c85	0.0002759
75	0xacce	-0.0751
76	0xa576	-0.02133
77	0x2e3a	0.0973
78	0x2dd8	0.0913
79	0xad9b	-0.0876
80	0x2e30	0.0967
81	0x3108	0.1572
82	0xa8a4	-0.03625
83	0x17fe	0.001951
84	0x25a1	0.02199
85	0xab63	-0.0577
86	0x2ff7	0.12445
87	0x986f	-0.002165
88	0x2c7e	0.0702
89	0x2edc	0.1072
90	0xb0ab	-0.1459
91	0x283f	0.03317
92	0x223e	0.01219
93	0xafd5	-0.1224
94	0x3084	0.1411
95	0x2d0d	0.0789
96	0xb123	-0.1605
97	0x305b	0.1361
98	0x30a7	0.1454
99	0x2935	0.04068
100	0xb631	-0.387
101	0x2f1a	0.11096
102	0xaf72	-0.11633
103	0xb578	-0.3418
104	0xb5bb	-0.3582
105	0x313b	0.1635
106	0x9cae	-0.00457
107	0xac85	-0.0706
108	0xa680	-0.02539
109	0xb182	-0.1721
110	0xa948	-0.04126
111	0x2bb7	0.06027
112	0xb456	-0.271
113	0x21dc	0.011444
114	0xa432	-0.01639
115	0xb410	-0.254
116	0x2a54	0.04944
117	0xa7b4	-0.03009
118	0xaa7a	-0.0506
119	0xa05e	-0.00853
120	0xb486	-0.2827
121	0x2c1e	0.06433
122	0xa42e	-0.01633
123	0xb105	-0.1569
124	0xaf0f	-0.1103
125	0xac05	-0.0628
126	0x1f15	0.006916
127	0xb051	-0.1349
128	0x23c3	0.01516
129	0x2d39	0.0816
130	0xb360	-0.2305
131	0xaf5a	-0.11487
132	0xb224	-0.1919
133	0xb1da	-0.1829
134	0xa578	-0.02136
135	0xac92	-0.0714
136	0x3088	0.1416
137	0x2c0f	0.0634
138	0xb729	-0.4475
139	0xb39f	-0.2382
140	0x2e72	0.1007
141	0xb2d6	-0.2136
142	0x30ea	0.1536
143	0x3505	0.3137
144	0xb077	-0.1395
145	0x254f	0.02074
146	0xb02a	-0.1301
147	0xa941	-0.04105
148	0xac05	-0.0628
149	0xab02	-0.05475
150	0xac1d	-0.0643
151	0xb53c	-0.3271
152	0xb11f	-0.16
153	0x2f52	0.1144
154	0xb27c	-0.2026
155	0x2df3	0.09296
156	0x2848	0.03345
157	0xb03d	-0.1324
158	0x20ad	0.00913
159	0x2d20	0.0801
160	0xb19f	-0.1757
161	0x1f0f	0.006893
162	0xa4c3	-0.0186
163	0x9e9b	-0.00645
164	0x295a	0.0418
165	0x3006	0.1257
166	0x2af4	0.05432
167	0xa4f0	-0.01929
168	0xb068	-0.1377
169	0xade2	-0.0919
170	0x338c	0.2358
171	0xb48f	-0.285
172	0x3875	0.557
173	0xb2d9	-0.214
174	0x2973	0.04257
175	0x3773	0.4656
176	0xb1da	-0.1829
177	0xb20d	-0.1891
178	0xab37	-0.05637
179	0x252f	0.02025
180	0xb046	-0.1335
181	0x2fd4	0.1223
182	0xb268	-0.2002
183	0xab48	-0.0569
184	0x266d	0.0251
185	0x9e84	-0.006363
186	0xa4a2	-0.0181
187	0xaf98	-0.11865
188	0x308c	0.1421
189	0xafba	-0.1207
190	0xa51f	-0.02
191	0x304a	0.134
192	0xad0d	-0.0789
193	0xaac1	-0.05276
194	0x2a3a	0.04865
195	0x2823	0.03232
196	0xb124	-0.1606
197	0xaf1c	-0.1111
198	0xa2b1	-0.01307
199	0x31a5	0.1764
200	0xb33b	-0.226
201	0xb1e2	-0.1838
202	0x30d4	0.1509
203	0x2936	0.0407
204	0xa081	-0.0088
205	0x2f16	0.1107
206	0xac0a	-0.0631
207	0xac3c	-0.06616
208	0xb635	-0.388
209	0xb493	-0.286
210	0x3142	0.1643
211	0x3830	0.5234
212	0x3812	0.509
213	0x2dde	0.0917
214	0x30e9	0.1534
215	0xad2f	-0.081
216	0x2b6e	0.05804
217	0xb1a3	-0.1761
218	0xb498	-0.287
219	0x30db	0.1517
220	0xafae	-0.12
221	0x33c1	0.2423
222	0xa405	-0.0157
223	0x9d48	-0.005157
224	0x1a75	0.003153
225	0x31ff	0.1874
226	0xb064	-0.1372
227	0xb23b	-0.1947
228	0x3034	0.1313
229	0x2f55	0.11456
230	0xb1f7	-0.1864
231	0xad30	-0.08105
232	0x2de8	0.0923
233	0xa284	-0.012726
234	0x32a0	0.207
235	0xa9e6	-0.04608
236	0x354b	0.3308
237	0x3497	0.2869
238	0x320d	0.1891
239	0x3614	0.38
240	0x340b	0.2527
241	0xa6a7	-0.02599
242	0xb346	-0.2273
243	0xafed	-0.12384
244	0x3685	0.4075
245	0x25d0	0.0227
246	0xaa9b	-0.0516
247	0xad01	-0.0782
248	0x2915	0.0397
249	0xac7c	-0.07007
250	0xb0e0	-0.1523
251	0xab2b	-0.056
252	0xb2a8	-0.208
253	0x2d83	0.0861
254	0x2e7e	0.10144
255	0xb479	-0.2795

in_c.1.1.weight f2 [16]
0	0x38f4	0.619
1	0x3bf9	0.9966
2	0x3a47	0.7847
3	0x3d0b	1.261
4	0x3c2d	1.044
5	0x3c85	1.13
6	0x3c93	1.144
7	0x3aaf	0.8354
8	0x3c53	1.081
9	0x3c61	1.095
10	0x3bbd	0.9673
11	0x3c33	1.05
12	0x3c9a	1.15
13	0x3c0b	1.011
14	0x3c3b	1.058
15	0x3cee	1.232

in_c.1.1.bias f2 [16]
0	0xb62b	-0.3855
1	0xabc2	-0.0606
2	0x3027	0.1298
3	0x36fd	0.4368
4	0x2da6	0.08826
5	0x2872	0.03473
6	0xad61	-0.08405
7	0xb36b	-0.2318
8	0x2f76	0.1166
9	0x25d2	0.02274
10	0xacba	-0.07385
11	0xa9f4	-0.0465
12	0x2855	0.03384
13	0x3836	0.5264
14	0x319d	0.1754
15	0x2eaf	0.10443

in_c.1.1.running_mean f2 [16]
0	0x3a05	0.7524
1	0x3330	0.2246
2	0xb833	-0.525
3	0xba15	-0.7603
4	0xab8a	-0.0589
5	0x34db	0.3035
6	0x35c5	0.3606
7	0xa305	-0.01371
8	0xb7f9	-0.4983
9	0x3fb8	1.93
10	0x37f0	0.496
11	0xace6	-0.07654
12	0x3407	0.2517
13	0xb42d	-0.261
14	0x3857	0.5425
15	0xb507	-0.3142

in_c.1.1.running_var f2 [16]
0	0x3924	0.6426
1	0x3b7c	0.9355
2	0x3be8	0.9883
3	0x3b00	0.875
4	0x36f5	0.4348
5	0x390e	0.632
6	0x3789	0.471
7	0x3ee1	1.72
8	0x3d6c	1.355
9	0x4035	2.104
10	0x3c33	1.05
11	0x3f49	1.821
12	0x399e	0.702
13	0x3512	0.317
14	0x4418	4.094
15	0x3a7f	0.812

stages.s1.b1.block.0.0.weight f2 [32, 16, 1, 1]
0	0x3303	0.2191
1	0xa6b6	-0.02621
2	0xb28f	-0.205
3	0xb5ec	-0.37
4	0xad4f	-0.08295
5	0xaf49	-0.11383
6	0x370e	0.441
7	0x3368	0.2314
8	0x381f	0.515
9	0x3162	0.1682
10	0xa171	-0.01063
11	0x2d31	0.0811
12	0xb2dc	-0.2144
13	0x23eb	0.015465
14	0x2ee0	0.1074
15	0x2d02	0.07825
16	0x3129	0.1613
17	0x308a	0.1418
18	0xa851	-0.03372
19	0x3192	0.1741
20	0xb69e	-0.4136
21	0xb2e6	-0.2156
22	0x3731	0.4495
23	0xb438	-0.2637
24	0xb5fa	-0.3735
25	0x3839	0.528
26	0xa7b5	-0.0301
27	0x320b	0.1888
28	0xa0e7	-0.009575
29	0xa814	-0.03186
30	0x2ed9	0.107
31	0xb66e	-0.4019
32	0x19f9	0.002916
33	0x2f5e	0.1151
34	0xb618	-0.3809
35	0x34c1	0.297
36	0xb1e3	-0.184
37	0xb5a2	-0.352
38	0x34f2	0.309
39	0xac37	-0.06586
40	0xa795	-0.02962
41	0x38ad	0.5845
42	0xb29e	-0.2068
43	0xb825	-0.518
44	0x3632	0.3872
45	0x2b26	0.05585
46	0x3803	0.5015
47	0xb515	-0.3176
48	0xa78f	-0.02953
49	0x2de4	0.09204
50	0x2b6b	0.05795
51	0xb724	-0.4463
52	0x1fd1	0.007633
53	0x3a0b	0.7554
54	0xba68	-0.801
55	0xabca	-0.06085
56	0x2174	0.01065
57	0x32df	0.2147
58	0xb59f	-0.3513
59	0xb405	-0.2512
60	0x38d4	0.6035
61	0xb55d	-0.3352
62	0xb2c8	-0.2119
63	0xaf79	-0.11676
64	0x287f	0.03513
65	0x24ed	0.01924
66	0x3145	0.1647
67	0x3016	0.1277
68	0xa5b4	-0.02228
69	0xaad3	-0.0533
70	0x358d	0.347
71	0xabf9	-0.0623
72	0xb0e9	-0.1534
73	0xb17c	-0.1714
74	0x33da	0.2454
75	0x2e96	0.1029
76	0x369d	0.4133
77	0xaac4	-0.05286
78	0xb651	-0.3948
79	0x3918	0.6367
80	0xac25	-0.06476
81	0xb915	-0.6353
82	0xa476	-0.01743
83	0x3817	0.511
84	0x23e7	0.015434
85	0xb831	-0.524
86	0xb86f	-0.554
87	0x37c8	0.4863
88	0xa40d	-0.01582
89	0x301c	0.1284
90	0x2fd0	0.1221
91	0xb2eb	-0.2162
92	0x3423	0.2585
93	0xaf1f	-0.11127
94	0x34ae	0.2925
95	0xb058	-0.1357
96	0x324b	0.1967
97	0x34d1	0.301
98	0xb0fa	-0.1555
99	0xb866	-0.55
100	0x3658	0.3965
101	0x35f1	0.3713
102	0xaa3a	-0.04865
103	0xb45e	-0.273
104	0xb014	-0.1274
105	0xb3cb	-0.2435
106	0xae4d	-0.09845
107	0x2023	0.00808
108	0xb1f6	-0.1863
109	0xb68b	-0.409
110	0x332b	0.224
111	0x36cb	0.4246
112	0x27d1	0.03053
113	0xb581	-0.344
114	0x308d	0.1422
115	0xb785	-0.47
116	0x24b2	0.01834
117	0x25fb	0.02336
118	0xa9ae	-0.04437
119	0x2d53	0.0832
120	0xb701	-0.4377
121	0xb5ce	-0.3628
122	0x331c	0.2222
123	0xb35b	-0.2299
124	0xb237	-0.1942
125	0x333a	0.2258
126	0x3364	0.231
127	0xb799	-0.4749
128	0xb655	-0.3958
129	0x3191	0.174
130	0x3458	0.2715
131	0x32ec	0.2163
132	0xb5ed	-0.3704
133	0xb4ec	-0.3076
134	0xae2d	-0.0965
135	0x31d4	0.1821
136	0xa906	-0.03925
137	0xb91b	-0.638
138	0xa152	-0.01039
139	0x3363	0.2308
140	0x2989	0.04324
141	0xbab1	-0.8364
142	0xa64e	-0.02463
143	0x30c4	0.1489
144	0x1aac	0.003258
145	0x2cb3	0.0734
146	0xb0e4	-0.1528
147	0xb497	-0.2869
148	0x2e21	0.09576
149	0x2a0d	0.04727
150	0x32c1	0.211
151	0x25f2	0.02322
152	0x2b18	0.05542
153	0x2f2f	0.11224
154	0x2a38	0.04858
155	0xb529	-0.3225
156	0xaf39	-0.11285
157	0x3585	0.345
158	0x2e38	0.09717
159	0x3919	0.637
160	0xb632	-0.3872
161	0xb451	-0.2698
162	0xb405	-0.2512
163	0xbbd9	-0.981
164	0x3394	0.2368
165	0x34f8	0.3105
166	0xa922	-0.0401
167	0x3125	0.1608
168	0x2f52	0.1144
169	0xaac2	-0.0528
170	0x24cd	0.01875
171	0x307e	0.1404
172	0xb6a7	-0.4158
173	0x3861	0.5474
174	0x38f4	0.619
175	0x2efd	0.1092
176	0xacfe	-0.078
177	0xb1d8	-0.1826
178	0x3880	0.5625
179	0xb902	-0.626
180	0xb5d2	-0.3638
181	0xb172	-0.1702
182	0xb9a8	-0.707
183	0x3024	0.1294
184	0xb533	-0.325
185	0xaffe	-0.1249
186	0xb0bc	-0.148
187	0x36c6	0.4233
188	0x2b3e	0.05658
189	0x30b5	0.1471
190	0xb020	-0.1289
191	0xb910	-0.633
192	0x2b07	0.0549
193	0xb1fb	-0.1869
194	0x34d0	0.3008
195	0x2dcb	0.0905
196	0xb36a	-0.2317
197	0xb936	-0.6514
198	0xb466	-0.275
199	0x2668	0.02502
200	0xb505	-0.3137
201	0x3476	0.2788
202	0x3769	0.4631
203	0xbb32	-0.8994
204	0x34c8	0.2988
205	0xb821	-0.516
206	0x98b1	-0.00229
207	0x3313	0.2211
208	0xb018	-0.1279
209	0x2c1d	0.0643
210	0x3398	0.2373
211	0xb1d8	-0.1826
212	0xb873	-0.556
213	0x2ef6	0.10876
214	0x349c	0.288
215	0x341a	0.2563
216	0xb5e7	-0.369
217	0xb74d	-0.4563
218	0xb19b	-0.1752
219	0x35de	0.3667
220	0xaf9e	-0.119
221	0x3090	0.1426
222	0xb440	-0.2656
223	0x32aa	0.2083
224	0x2326	0.01396
225	0xb175	-0.1705
226	0x354e	0.3315
227	0x3058	0.1357
228	0xb40a	-0.2524
229	0xb4fc	-0.3115
230	0x33d2	0.2444
231	0xb7c5	-0.4856
232	0xb01d	-0.1285
233	0x1f03	0.006847
234	0xaa47	-0.04904
235	0x26e2	0.02689
236	0x2987	0.04318
237	0x3645	0.3918
238	0xb6a1	-0.4143
239	0xb712	-0.442
240	0x3012	0.1272
241	0x23be	0.01512
242	0x35f5	0.3723
243	0x32f7	0.2177
244	0xad6f	-0.0849
245	0x37b9	0.4827
246	0x9130	-0.0006332
247	0xb5ed	-0.3704
248	0xaaf8	-0.05444
249	0x361c	0.3818
250	0xb58a	-0.3462
251	0xb4ec	-0.3076
252	0x33a0	0.2383
253	0xb666	-0.4
254	0xb2eb	-0.2162
255	0xb34f	-0.2284

stages.s1.b1.block.0.1.weight f2 [32]
0	0x2aa0	0.05176
1	0x3aba	0.841
2	0x3bbc	0.967
3	0x3c99	1.149
4	0x3bc8	0.9727
5	0x384a	0.536
6	0x3c54	1.082
7	0x3cc0	1.1875
8	0x3c21	1.032
9	0x3c2a	1.041
10	0x3c8b	1.136
11	0x3ba0	0.953
12	0x3d2a	1.291
13	0x3c62	1.096
14	0x3c30	1.047
15	0x3da4	1.41
16	0x39d7	0.73
17	0x3bfe	0.999
18	0x3c28	1.039
19	0x3c2d	1.044
20	0x3cd5	1.208
21	0x3c30	1.047
22	0x3dfe	1.498
23	0x39c0	0.7188
24	0x3c87	1.132
25	0x3daf	1.421
26	0x3ddf	1.468
27	0x397a	0.6846
28	0x3c7c	1.121
29	0x3bc5	0.971
30	0x38a6	0.581
31	0x3b8a	0.9424

stages.s1.b1.block.0.1.bias f2 [32]
0	0xb8b9	-0.5903
1	0xb393	-0.2367
2	0xae28	-0.0962
3	0xb133	-0.1625
4	0xb0e7	-0.1532
5	0x35d1	0.3635
6	0xacc8	-0.0747
7	0x31da	0.1829
8	0x302c	0.1304
9	0xaed2	-0.10657
10	0x1cbb	0.00462
11	0x34d3	0.3015
12	0x2a72	0.05035
13	0xa978	-0.04272
14	0x227a	0.01265
15	0x21b8	0.01117
16	0x3671	0.4026
17	0x2b5e	0.05756
18	0x30db	0.1517
19	0x325a	0.1985
20	0x28f4	0.0387
21	0x31e3	0.184
22	0xa53c	-0.02045
23	0x3361	0.2306
24	0x2b21	0.0557
25	0xa421	-0.01613
26	0x2c60	0.06836
27	0x3407	0.2517
28	0x2ccd	0.075
29	0x2f11	0.1104
30	0x3663	0.3992
31	0x2fa7	0.11957

stages.s1.b1.block.0.1.running_mean f2 [32]
0	0x3176	0.1707
1	0xa4e6	-0.01913
2	0x346d	0.2766
3	0xb8a4	-0.58
4	0x380e	0.507
5	0xada6	-0.08826
6	0xb564	-0.337
7	0xbafc	-0.873
8	0xba0c	-0.756
9	0x373a	0.4517
10	0xac88	-0.0708
11	0xbcfa	-1.244
12	0xba01	-0.7505
13	0xb579	-0.342
14	0xb4e1	-0.305
15	0xad75	-0.08527
16	0xbc1f	-1.03
17	0x2c69	0.0689
18	0x32e8	0.2158
19	0x3680	0.4062
20	0x3d82	1.377
21	0xb2e9	-0.216
22	0xb766	-0.4624
23	0xba40	-0.7812
24	0x3344	0.227
25	0xba53	-0.7905
26	0x3a3b	0.779
27	0xb55a	-0.3345
28	0xb226	-0.1921
29	0x2b68	0.05786
30	0x3377	0.2333
31	0x34a4	0.29

stages.s1.b1.block.0.1.running_var f2 [32]
0	0x341e	0.2573
1	0x3a27	0.769
2	0x398d	0.694
3	0x38de	0.6084
4	0x3c6a	1.104
5	0x3c29	1.04
6	0x36c3	0.4226
7	0x3970	0.6797
8	0x3a35	0.776
9	0x372d	0.4485
10	0x3efb	1.745
11	0x391c	0.6387
12	0x3e48	1.57
13	0x3627	0.3845
14	0x377a	0.4673
15	0x3a92	0.8213
16	0x3e7d	1.622
17	0x3850	0.539
18	0x419e	2.809
19	0x3da4	1.41
20	0x3cb6	1.178
21	0x392e	0.6475
22	0x3c39	1.056
23	0x3918	0.6367
24	0x3cd0	1.203
25	0x3b26	0.8936
26	0x3b94	0.9473
27	0x39c5	0.721
28	0x415c	2.68
29	0x394c	0.662
30	0x3ec0	1.6875
31	0x3a07	0.7534

stages.s1.b1.block.1.0.weight f2 [32, 1, 3, 3]
0	0x2c6c	0.0691
1	0xb009	-0.1261
2	0x30c9	0.1495
3	0xac70	-0.06934
4	0xb18b	-0.1732
5	0xa713	-0.02763
6	0xb161	-0.1681
7	0xb229	-0.1925
8	0xa86a	-0.0345
9	0xa9e6	-0.04608
10	0xb1d0	-0.1816
11	0xb235	-0.194
12	0x2891	0.03568
13	0xa616	-0.02377
14	0x30d7	0.1512
15	0xaf83	-0.1174
16	0xb1ce	-0.1814
17	0xb473	-0.278
18	0xacb7	-0.07367
19	0x2ec1	0.1055
20	0x314e	0.1658
21	0xa632	-0.0242
22	0x9e63	-0.006237
23	0x34d0	0.3008
24	0xb4a1	-0.2893
25	0xa331	-0.014046
26	0x9c60	-0.004272
27	0xb188	-0.1729
28	0x2e55	0.09894
29	0xabae	-0.06
30	0x33d5	0.2448
31	0xb42e	-0.2612
32	0x328a	0.2043
33	0x278e	0.02951
34	0x3017	0.1278
35	0xb292	-0.2053
36	0xa85a	-0.034
37	0xb1ce	-0.1814
38	0xa6de	-0.02682
39	0x21be	0.011215
40	0xac13	-0.06366
41	0xa4a4	-0.01813
42	0xb23c	-0.1948
43	0x2cac	0.073
44	0x293d	0.04092
45	0xb388	-0.2354
46	0xafc4	-0.12134
47	0xb4c3	-0.2976
48	0x2eb2	0.1046
49	0x3331	0.2247
50	0xa30d	-0.01377
51	0x23a9	0.01496
52	0x3006	0.1257
53	0x2bef	0.06198
54	0x3458	0.2715
55	0x2246	0.01225
56	0xadaa	-0.0885
57	0x3146	0.1648
58	0xb5ea	-0.3696
59	0xb009	-0.1261
60	0x314e	0.1658
61	0xadd5	-0.0911
62	0xaea8	-0.104
63	0xa82a	-0.03253
64	0x33bb	0.2416
65	0x2ffb	0.1247
66	0xb4ab	-0.2917
67	0xb350	-0.2285
68	0xb09f	-0.1444
69	0xb040	-0.1328
70	0x310b	0.1576
71	0x22c7	0.01324
72	0xabb3	-0.06015
73	0xb198	-0.1748
74	0xad32	-0.0812
75	0x33a9	0.2394
76	0xb347	-0.2274
77	0x3120	0.1602
78	0xa210	-0.01184
79	0xaaae	-0.0522
80	0x356e	0.3394
81	0x2482	0.01761
82	0x3332	0.2249
83	0x2928	0.04028
84	0xad3c	-0.0818
85	0x31e8	0.1846
86	0x2ff2	0.12415
87	0xb513	-0.3171
88	0x2ffd	0.1248
89	0x2d91	0.087
90	0x352d	0.3235
91	0x3051	0.1349
92	0x34d3	0.3015
93	0xaf5d	-0.11505
94	0xa791	-0.02956
95	0x305e	0.1365
96	0xb293	-0.2054
97	0xb300	-0.2188
98	0xb088	-0.1416
99	0xb4d8	-0.3027
100	0x37c0	0.4844
101	0xae82	-0.1017
102	0x22dd	0.013405
103	0x2fbe	0.121
104	0x30e0	0.1523
105	0xb2d6	-0.2136
106	0x24ee	0.01926
107	0x2bc9	0.06082
108	0x304f	0.1346
109	0x2e11	0.0948
110	0x2f54	0.1145
111	0xa8ee	-0.0385
112	0xb156	-0.1667
113	0x106f	0.000541
114	0xac41	-0.06647
115	0xb4bd	-0.2961
116	0xb483	-0.282
117	0x2d4a	0.08264
118	0x2ae9	0.054
119	0xacab	-0.07294
120	0xacd5	-0.0755
121	0xae1b	-0.0954
122	0xafed	-0.12384
123	0xab5c	-0.0575
124	0xb1fd	-0.1871
125	0xb03c	-0.1323
126	0xacb9	-0.0738
127	0x3561	0.3362
128	0x3279	0.2023
129	0xb0f4	-0.1548
130	0xabe1	-0.06155
131	0x2df7	0.0932
132	0xb1f9	-0.1866
133	0x3277	0.202
134	0x332c	0.2241
135	0x28fa	0.03888
136	0x2ecd	0.10626
137	0x319e	0.1755
138	0xa553	-0.0208
139	0x302f	0.1307
140	0x30c5	0.149
141	0x2cb8	0.0737
142	0x3249	0.1964
143	0x3304	0.2192
144	0xb405	-0.2512
145	0x27ab	0.02995
146	0x304c	0.1343
147	0xab87	-0.0588
148	0xa6fd	-0.0273
149	0x3411	0.2542
150	0xb397	-0.2372
151	0xad69	-0.08453
152	0x33d1	0.2443
153	0xaca6	-0.07263
154	0xb2e4	-0.2153
155	0xae21	-0.09576
156	0x2cf2	0.0773
157	0xb1d6	-0.1824
158	0xa477	-0.01744
159	0xafaa	-0.11975
160	0xb1bc	-0.1792
161	0x2e02	0.0939
162	0xaf54	-0.1145
163	0x33b7	0.2411
164	0x34e5	0.306
165	0xacff	-0.07806
166	0x30b7	0.1473
167	0x2b26	0.05585
168	0xb4a0	-0.289
169	0xb06b	-0.1381
170	0x2d2a	0.0807
171	0xb098	-0.1436
172	0xa403	-0.01567
173	0xb455	-0.2708
174	0x3300	0.2188
175	0x349b	0.2878
176	0x30ae	0.1462
177	0xa9e7	-0.0461
178	0x283a	0.03302
179	0xa9db	-0.04575
180	0xb1d5	-0.1823
181	0xac27	-0.0649
182	0xac0f	-0.0634
183	0x3614	0.38
184	0x30f3	0.1547
185	0x33d8	0.2451
186	0x2eb4	0.10474
187	0x2dd1	0.0909
188	0xb064	-0.1372
189	0x3305	0.2194
190	0x37c0	0.4844
191	0x9e10	-0.00592
192	0xac12	-0.0636
193	0x209f	0.009026
194	0xb30a	-0.22
195	0x2bdd	0.06143
196	0xa4a7	-0.01817
197	0xb1c5	-0.1803
198	0xb3ec	-0.2476
199	0xb3fd	-0.2496
200	0xb70d	-0.4407
201	0xadeb	-0.09247
202	0x2a07	0.0471
203	0xaf65	-0.11554
204	0x2eac	0.10425
205	0x3022	0.1292
206	0xaf32	-0.1124
207	0xb2f0	-0.2168
208	0x2404	0.01569
209	0xad4b	-0.0827
210	0xb72b	-0.448
211	0x2d14	0.07935
212	0xaa6c	-0.05017
213	0xb183	-0.1722
214	0x3080	0.1406
215	0x1d08	0.004913
216	0xb0cd	-0.15
217	0x211c	0.00998
218	0xb21e	-0.1912
219	0x2368	0.014465
220	0xa5ee	-0.02316
221	0x30e4	0.1528
222	0x2622	0.02396
223	0x3811	0.5083
224	0x3460	0.2734
225	0xb13a	-0.1633
226	0xabc7	-0.06076
227	0x3488	0.2832
228	0xaba9	-0.05984
229	0xa94c	-0.04138
230	0x30e4	0.1528
231	0xab19	-0.05545
232	0x2398	0.01483
233	0x363e	0.3901
234	0xab32	-0.0562
235	0xa8b2	-0.03668
236	0xb6b5	-0.4192
237	0x30b8	0.1475
238	0x3726	0.4468
239	0xa4b3	-0.01836
240	0xa2b9	-0.01313
241	0x32d0	0.2129
242	0xb18c	-0.1733
243	0xaf78	-0.1167
244	0xb379	-0.2335
245	0x315d	0.1676
246	0x31d6	0.1824
247	0xa8c7	-0.03732
248	0xa32d	-0.014015
249	0x2d2a	0.0807
250	0xb258	-0.1982
251	0x240f	0.01585
252	0xb055	-0.1354
253	0xb078	-0.1396
254	0xaae6	-0.0539
255	0xaaa4	-0.05188

stages.s1.b1.block.1.1.weight f2 [32]
0	0x3c00	1.0
1	0x3b79	0.934
2	0x3ba4	0.955
3	0x3bdc	0.9824
4	0x3bd3	0.978
5	0x3cad	1.169
6	0x3a5b	0.7944
7	0x3b9e	0.952
8	0x3a6e	0.8037
9	0x3a3a	0.7783
10	0x3bae	0.96
11	0x3dd1	1.454
12	0x3a4e	0.788
13	0x3c20	1.031
14	0x3afb	0.8726
15	0x3b98	0.949
16	0x3c06	1.006
17	0x3cf1	1.235
18	0x3d38	1.305
19	0x3bc9	0.973
20	0x3a04	0.752
21	0x3c3d	1.06
22	0x3c8b	1.136
23	0x3a7c	0.8105
24	0x3c19	1.024
25	0x3c04	1.004
26	0x3c7d	1.122
27	0x3a3d	0.78
28	0x3ae1	0.86
29	0x3c3e	1.061
30	0x3d20	1.281
31	0x3c14	1.02

stages.s1.b1.block.1.1.bias f2 [32]
0	0xab19	-0.05545
1	0x2ed9	0.107
2	0x3034	0.1313
3	0xad19	-0.07965
4	0x9729	-0.001748
5	0x30c9	0.1495
6	0x24f5	0.01936
7	0x3110	0.1582
8	0x309c	0.144
9	0xb132	-0.1624
10	0x3132	0.1624
11	0x2e30	0.0967
12	0xb150	-0.166
13	0xa485	-0.01765
14	0xb080	-0.1406
15	0xaa65	-0.04996
16	0x3829	0.52
17	0x2bfd	0.0624
18	0x3786	0.4702
19	0xb4e4	-0.3057
20	0xae39	-0.0972
21	0x3493	0.286
22	0x2dfa	0.0934
23	0xb492	-0.2856
24	0x31d3	0.182
25	0xa4bd	-0.01851
26	0x26af	0.02611
27	0xb43a	-0.2642
28	0x104c	0.0005245
29	0x2f9c	0.1189
30	0x35e3	0.368
31	0x2c9d	0.0721

stages.s1.b1.block.1.1.running_mean f2 [32]
0	0x8000	-0.0
1	0xb21b	-0.1908
2	0x2952	0.04156
3	0x1ccd	0.00469
4	0xb00d	-0.1266
5	0xaa28	-0.0481
6	0xaed8	-0.10693
7	0xb12e	-0.1619
8	0x2977	0.0427
9	0x30e3	0.1527
10	0x2e03	0.09393
11	0x30f8	0.1553
12	0xb494	-0.2861
13	0xb3b2	-0.2405
14	0x3368	0.2314
15	0x3865	0.5493
16	0xa493	-0.01787
17	0xb480	-0.2812
18	0x2f11	0.1104
19	0x2e1c	0.09546
20	0x33cd	0.2438
21	0x301d	0.1285
22	0xb837	-0.527
23	0xb4f7	-0.3103
24	0x3487	0.283
25	0x3425	0.259
26	0x2cdd	0.076
27	0xacc3	-0.0744
28	0x2d04	0.07837
29	0xb23f	-0.1952
30	0x3028	0.1299
31	0x31e5	0.1842

stages.s1.b1.block.1.1.running_var f2 [32]
0	0x0000	0.0
1	0x3216	0.1902
2	0x2b09	0.05496
3	0x282b	0.03256
4	0x2abb	0.05258
5	0x256b	0.02116
6	0x2d2b	0.08075
7	0x2c2b	0.0651
8	0x2ada	0.05353
9	0x2f9f	0.1191
10	0x30c9	0.1495
11	0x2e5c	0.09937
12	0x319e	0.1755
13	0x2d09	0.0787
14	0x2e18	0.0952
15	0x3a0f	0.7573
16	0x2621	0.02394
17	0x31b9	0.1788
18	0x2968	0.04224
19	0x2a06	0.04706
20	0x3514	0.3174
21	0x3085	0.1412
22	0x371a	0.4438
23	0x2bde	0.06146
24	0x3275	0.2018
25	0x3165	0.1686
26	0x321f	0.1913
27	0x2090	0.00891
28	0x28be	0.03705
29	0x2e80	0.10156
30	0x2c43	0.0666
31	0x30e5	0.153

stages.s1.b1.block.2.0.weight f2 [16, 32, 1, 1]
0	0xa878	-0.0349
1	0xacb4	-0.0735
2	0xb406	-0.2515
3	0xb3b7	-0.2411
4	0xb8f9	-0.6216
5	0x2ef5	0.1087
6	0xaf03	-0.10956
7	0x3576	0.3413
8	0x34f8	0.3105
9	0xa931	-0.04056
10	0x31c6	0.1804
11	0x3522	0.3208
12	0x34fd	0.3118
13	0xae34	-0.0969
14	0xaa78	-0.05054
15	0xb883	-0.564
16	0x3a78	0.8086
17	0x34d7	0.3025
18	0xba94	-0.8223
19	0xb108	-0.1572
20	0xb040	-0.1328
21	0x36db	0.4285
22	0x2ef7	0.1088
23	0xb361	-0.2306
24	0xad3e	-0.0819
25	0x354f	0.3318
26	0x3174	0.1704
27	0xb886	-0.5654
28	0x29f9	0.04666
29	0xa6ab	-0.02605
30	0x296e	0.04242
31	0xa0ec	-0.00961
32	0x281f	0.0322
33	0xb62b	-0.3855
34	0x1939	0.00255
35	0xbca0	-1.156
36	0x3624	0.3838
37	0x36b5	0.4192
38	0xae0c	-0.0945
39	0xb27a	-0.2024
40	0x1c64	0.004288
41	0x2118	0.00995
42	0x305f	0.1366
43	0xbb5d	-0.9204
44	0xb19a	-0.175
45	0xb407	-0.2517
46	0xb188	-0.1729
47	0x3833	0.525
48	0xaebc	-0.1052
49	0x32ef	0.2167
50	0x385e	0.546
51	0x34ad	0.2922
52	0x29f5	0.04654
53	0xb58e	-0.3472
54	0xafd7	-0.1225
55	0xb4ba	-0.2954
56	0x388c	0.5684
57	0xb601	-0.3752
58	0x3701	0.4377
59	0x33a7	0.2391
60	0x32d7	0.2137
61	0xb8bf	-0.5933
62	0xb8ae	-0.585
63	0xb23e	-0.1951
64	0xb2f8	-0.2178
65	0x2e41	0.0977
66	0xb17a	-0.1711
67	0xb3fb	-0.2494
68	0x36fc	0.4365
69	0x2f90	0.11816
70	0xb64f	-0.3943
71	0xace7	-0.0766
72	0xb0a9	-0.1456
73	0x2c4c	0.06714
74	0x3167	0.1688
75	0xb6f4	-0.4346
76	0x2f4a	0.1139
77	0x39b3	0.7124
78	0xb996	-0.698
79	0x35b2	0.356
80	0x3372	0.2327
81	0x381f	0.515
82	0xb504	-0.3135
83	0xb5ce	-0.3628
84	0x2ecf	0.1064
85	0xabe2	-0.06158
86	0x35cd	0.3625
87	0x31e7	0.1844
88	0x38ed	0.6157
89	0x302e	0.1306
90	0x31f6	0.1863
91	0xb624	-0.3838
92	0xad4c	-0.08276
93	0xb24b	-0.1967
94	0xb883	-0.564
95	0xb8b0	-0.586
96	0xa859	-0.03397
97	0xb81e	-0.5146
98	0xb45d	-0.2727
99	0xb409	-0.2522
100	0xb493	-0.286
101	0x3a90	0.8203
102	0x3635	0.388
103	0x3980	0.6875
104	0x301a	0.1282
105	0x25b7	0.02232
106	0x319d	0.1754
107	0x36ec	0.4326
108	0x34cc	0.2998
109	0xaa7a	-0.0506
110	0x2ca1	0.0723
111	0xb754	-0.458
112	0xb861	-0.5474
113	0x3787	0.4705
114	0x3922	0.6416
115	0x2f2b	0.112
116	0xb5e8	-0.3691
117	0xb41b	-0.2566
118	0x33ef	0.2479
119	0xb708	-0.4395
120	0xacc6	-0.0746
121	0x3844	0.533
122	0xaf46	-0.11365
123	0x2ddc	0.09155
124	0x3663	0.3992
125	0xb5fb	-0.3738
126	0xb8f7	-0.6206
127	0x3272	0.2014
128	0xac96	-0.07166
129	0xaf47	-0.1137
130	0x37a1	0.4768
131	0x380c	0.506
132	0xa2b7	-0.013115
133	0xb70d	-0.4407
134	0x3670	0.4023
135	0x2f8e	0.11804
136	0x2f17	0.1108
137	0xba74	-0.8066
138	0xb672	-0.4028
139	0x28ce	0.03754
140	0x38a8	0.582
141	0xbac9	-0.848
142	0xb58e	-0.3472
143	0x3597	0.3494
144	0x393c	0.6543
145	0xbb5c	-0.92
146	0x321b	0.1908
147	0xb8bc	-0.592
148	0xb07f	-0.1405
149	0x342b	0.2605
150	0x30c4	0.1489
151	0x3a47	0.7847
152	0x3636	0.3882
153	0x3398	0.2373
154	0xb53c	-0.3271
155	0x29a6	0.04413
156	0xb79d	-0.4758
157	0xb957	-0.6675
158	0xb0c0	-0.1484
159	0x23b4	0.015045
160	0xb5d0	-0.3633
161	0x3702	0.438
162	0xb353	-0.2289
163	0x382e	0.5225
164	0xad1e	-0.07996
165	0xac45	-0.0667
166	0x294d	0.0414
167	0xaa6a	-0.0501
168	0x2e2b	0.0964
169	0xbb5c	-0.92
170	0x2f03	0.10956
171	0x37bb	0.4832
172	0xb95d	-0.6704
173	0x2d0b	0.0788
174	0x39d7	0.73
175	0xbaf5	-0.8696
176	0xbadf	-0.859
177	0xb319	-0.2218
178	0x3440	0.2656
179	0xb7bf	-0.4841
180	0xb077	-0.1395
181	0xb7c3	-0.485
182	0xb118	-0.1592
183	0xbc12	-1.018
184	0xb3cf	-0.244
185	0xb25c	-0.1987
186	0x3161	0.1681
187	0xa202	-0.011734
188	0x38ff	0.6245
189	0xb84c	-0.537
190	0xb616	-0.3804
191	0xb79b	-0.4753
192	0xb6a7	-0.4158
193	0x38c3	0.595
194	0x35b9	0.3577
195	0x3a66	0.8
196	0x3406	0.2515
197	0xb8ea	-0.6143
198	0xb482	-0.2817
199	0xb550	-0.332
200	0xa74a	-0.02847
201	0x2c49	0.06696
202	0xb31e	-0.2224
203	0xb03a	-0.1321
204	0x341e	0.2573
205	0x32bc	0.2104
206	0x2cc7	0.07465
207	0xa754	-0.02863
208	0xae57	-0.09906
209	0xb2f5	-0.2174
210	0x39d9	0.731
211	0x2d59	0.08356
212	0xb57a	-0.3423
213	0xb919	-0.637
214	0xb4dd	-0.304
215	0xb2dc	-0.2144
216	0x307c	0.1401
217	0x2f58	0.11475
218	0x2dc4	0.0901
219	0x32a8	0.208
220	0xb611	-0.3792
221	0x3a48	0.785
222	0xb130	-0.1621
223	0xb8f9	-0.6216
224	0x3393	0.2367
225	0xb19f	-0.1757
226	0x37eb	0.4949
227	0x278b	0.02946
228	0xb9b6	-0.714
229	0xb377	-0.2333
230	0x3957	0.6675
231	0x3120	0.1602
232	0x3a7d	0.811
233	0x28bc	0.037
234	0x26e1	0.02687
235	0x3765	0.4622
236	0xb262	-0.1995
237	0x38c3	0.595
238	0x34ce	0.3003
239	0x34e1	0.305
240	0xb8d2	-0.6025
241	0x2c30	0.0654
242	0xb8d7	-0.605
243	0xb47f	-0.281
244	0x336b	0.2318
245	0xac89	-0.07086
246	0xb817	-0.511
247	0x3564	0.337
248	0x3879	0.559
249	0x3501	0.3127
250	0x346e	0.2769
251	0xb069	-0.1378
252	0xb924	-0.6426
253	0xb90f	-0.6323
254	0x2e1d	0.0955
255	0x9e99	-0.006443

stages.s1.b1.block.2.1.weight f2 [16]
0	0x3c69	1.103
1	0x3b91	0.946
2	0x3c6b	1.1045
3	0x3aab	0.8335
4	0x3c71	1.11
5	0x3bb5	0.9634
6	0x3c9d	1.153
7	0x3acf	0.851
8	0x3c3e	1.061
9	0x3bd1	0.977
10	0x3b0c	0.881
11	0x3a5f	0.7964
12	0x3bb1	0.9614
13	0x3b8e	0.9443
14	0x3c85	1.13
15	0x3d03	1.253

stages.s1.b1.block.2.1.bias f2 [16]
0	0xabac	-0.05994
1	0x2d23	0.08026
2	0x2d43	0.0822
3	0x310c	0.1577
4	0xb080	-0.1406
5	0x3450	0.2695
6	0x3673	0.403
7	0xb4db	-0.3035
8	0x3430	0.2617
9	0x3304	0.2192
10	0x2142	0.01027
11	0x32db	0.2142
12	0x2ae8	0.05396
13	0x2d7c	0.0857
14	0x3432	0.2622
15	0x3212	0.1897

stages.s1.b1.block.2.1.running_mean f2 [16]
0	0x3497	0.2869
1	0xbaf8	-0.871
2	0xabae	-0.06
3	0x3934	0.6504
4	0xb69d	-0.4133
5	0xbeba	-1.682
6	0x25e2	0.02298
7	0xaf3e	-0.11316
8	0x3cbd	1.185
9	0xab02	-0.05475
10	0xba2a	-0.7705
11	0x3e13	1.519
12	0xaf09	-0.1099
13	0xb975	-0.682
14	0xbd55	-1.333
15	0x33ac	0.2397

stages.s1.b1.block.2.1.running_var f2 [16]
0	0x3e22	1.533
1	0x4209	3.018
2	0x3dd9	1.462
3	0x3fd2	1.955
4	0x4188	2.766
5	0x451c	5.11
6	0x41a0	2.812
7	0x4136	2.605
8	0x4447	4.277
9	0x3de2	1.471
10	0x415a	2.676
11	0x3fb7	1.929
12	0x4262	3.191
13	0x42d8	3.422
14	0x4053	2.162
15	0x43bb	3.865

stages.s1.b2.block.0.0.weight f2 [32, 16, 1, 1]
0	0xb525	-0.3215
1	0x3262	0.1995
2	0x3356	0.2292
3	0xb3a8	-0.2393
4	0xadbd	-0.08966
5	0xb52e	-0.3237
6	0x3608	0.377
7	0x2d1b	0.0798
8	0x3489	0.2834
9	0xb8dd	-0.608
10	0xb852	-0.54
11	0x24db	0.01897
12	0xaf27	-0.11176
13	0xb0f3	-0.1547
14	0x3073	0.139
15	0xa22f	-0.01208
16	0xb820	-0.5156
17	0xa878	-0.0349
18	0xb8b4	-0.588
19	0x3808	0.504
20	0x2d1b	0.0798
21	0x24e7	0.01915
22	0x3663	0.3992
23	0xb257	-0.1981
24	0x386e	0.5537
25	0xb1a8	-0.1768
26	0xa941	-0.04105
27	0xb9ed	-0.7407
28	0x31b8	0.1787
29	0x3289	0.2042
30	0x22ba	0.01314
31	0xa01a	-0.00801
32	0x3009	0.1261
33	0x32cc	0.2124
34	0xb43a	-0.2642
35	0xb42d	-0.261
36	0x2fbf	0.12103
37	0x307f	0.1405
38	0xb408	-0.252
39	0x3236	0.1941
40	0xb63c	-0.3896
41	0x3630	0.3867
42	0x33b5	0.2408
43	0x30a3	0.1449
44	0xb6bf	-0.4216
45	0x29ab	0.04428
46	0x3922	0.6416
47	0x30f2	0.1545
48	0x30c0	0.1484
49	0x2c18	0.06396
50	0xb2f6	-0.2175
51	0x36f0	0.4336
52	0xac3f	-0.06635
53	0x37ad	0.4797
54	0xb164	-0.1685
55	0xb967	-0.6753
56	0xb23a	-0.1946
57	0x2e2d	0.0965
58	0xb692	-0.4106
59	0xb0a6	-0.1453
60	0x27f2	0.03104
61	0xb9ea	-0.7393
62	0x37be	0.484
63	0x3523	0.321
64	0x2f0f	0.1103
65	0xb438	-0.2637
66	0xb575	-0.341
67	0xb221	-0.1915
68	0xae2d	-0.0965
69	0xb2fb	-0.2181
70	0xb84e	-0.538
71	0x22d5	0.01334
72	0x3781	0.469
73	0x3014	0.1274
74	0xb638	-0.3887
75	0x331c	0.2222
76	0xb0cd	-0.15
77	0x2d99	0.08746
78	0xb303	-0.2191
79	0x2bbf	0.06052
80	0x33ed	0.2477
81	0xab82	-0.05865
82	0xb98e	-0.6943
83	0x372a	0.4478
84	0x36b4	0.419
85	0x2220	0.01196
86	0xb18f	-0.1737
87	0xaf32	-0.1124
88	0xb310	-0.2207
89	0x3451	0.2698
90	0x37ce	0.4878
91	0xb296	-0.2058
92	0xae10	-0.0947
93	0x30da	0.1516
94	0x3759	0.4592
95	0xb4f1	-0.3088
96	0xb648	-0.3926
97	0x38c7	0.597
98	0xb0ac	-0.146
99	0x2ef1	0.10846
100	0xb557	-0.3337
101	0xb5c4	-0.3604
102	0xb843	-0.5327
103	0xaf30	-0.1123
104	0x32d8	0.2139
105	0xb4e1	-0.305
106	0x3414	0.255
107	0xa05a	-0.0085
108	0xa7cb	-0.03044
109	0x3590	0.3477
110	0x3674	0.4033
111	0xb033	-0.1312
112	0x32ba	0.2102
113	0xae55	-0.09894
114	0xacc7	-0.07465
115	0xb0ed	-0.1539
116	0xa912	-0.0396
117	0xb4cc	-0.2998
118	0xb27d	-0.2028
119	0xaabd	-0.05264
120	0xb622	-0.3833
121	0x2ee7	0.10785
122	0x3638	0.3887
123	0xb2aa	-0.2083
124	0x2708	0.02747
125	0xb71c	-0.4443
126	0xa652	-0.02469
127	0x3327	0.2235
128	0xb68d	-0.4094
129	0x2c2b	0.0651
130	0x36a3	0.4148
131	0xb0b9	-0.1476
132	0x25e0	0.02295
133	0x312e	0.1619
134	0xb0fe	-0.156
135	0x353c	0.3271
136	0x3466	0.275
137	0xaafe	-0.05463
138	0x38c7	0.597
139	0xb70d	-0.4407
140	0xb809	-0.5044
141	0xae30	-0.0967
142	0x3453	0.2703
143	0x33c8	0.2432
144	0xb071	-0.1388
145	0x2e8d	0.10236
146	0xb109	-0.1573
147	0x316f	0.1698
148	0xb4f1	-0.3088
149	0xb1e4	-0.1841
150	0xb9c1	-0.719
151	0xac92	-0.0714
152	0x315c	0.1675
153	0x32b0	0.209
154	0x38d0	0.6016
155	0x2fd6	0.12244
156	0xb62b	-0.3855
157	0x3248	0.1963
158	0xad75	-0.08527
159	0x35cd	0.3625
160	0xb20b	-0.1888
161	0x3515	0.3176
162	0x1ba9	0.00374
163	0x3969	0.6763
164	0x244c	0.01678
165	0x10ec	0.000601
166	0x325e	0.199
167	0xb030	-0.1309
168	0x30f6	0.155
169	0xb7c0	-0.4844
170	0x3640	0.3906
171	0xae4c	-0.0984
172	0x372d	0.4485
173	0x335a	0.2297
174	0x2f09	0.1099
175	0x3808	0.504
176	0xaae7	-0.05392
177	0xb55c	-0.335
178	0xade1	-0.09186
179	0xb29c	-0.2065
180	0xae4d	-0.09845
181	0x35f2	0.3716
182	0x36ed	0.4329
183	0xb4f1	-0.3088
184	0x2b40	0.05664
185	0xb2df	-0.2147
186	0x355e	0.3354
187	0x2c88	0.0708
188	0xb08c	-0.1421
189	0x3222	0.1917
190	0x2f17	0.1108
191	0xb62e	-0.3862
192	0x2c5c	0.0681
193	0xadd6	-0.0912
194	0xb4ad	-0.2922
195	0x2186	0.01079
196	0x359a	0.35
197	0xb486	-0.2827
198	0xb27d	-0.2028
199	0x3777	0.4666
200	0x374f	0.4568
201	0xaa0e	-0.0473
202	0x30c8	0.1494
203	0xb612	-0.3794
204	0xb554	-0.333
205	0x3878	0.5586
206	0x37a0	0.4766
207	0x2d3e	0.0819
208	0xad96	-0.0873
209	0xb7a9	-0.4788
210	0x3134	0.1626
211	0x3523	0.321
212	0x2ab0	0.05225
213	0xa733	-0.02812
214	0xb933	-0.65
215	0xb6b6	-0.4194
216	0xade5	-0.0921
217	0xb503	-0.3132
218	0xa6fe	-0.02731
219	0xb5b5	-0.3567
220	0x3699	0.4124
221	0x3649	0.3928
222	0xb570	-0.3398
223	0x3556	0.3335
224	0x3576	0.3413
225	0xb52f	-0.324
226	0xb50b	-0.3152
227	0x2550	0.02075
228	0x356b	0.3386
229	0xb88e	-0.5693
230	0xb5a8	-0.3535
231	0x30bd	0.1481
232	0x3669	0.4006
233	0xa8e8	-0.03833
234	0xb48f	-0.285
235	0x34ac	0.292
236	0xb585	-0.345
237	0x34a3	0.2898
238	0xb446	-0.267
239	0xba8d	-0.819
240	0x992d	-0.002527
241	0xb3f4	-0.2485
242	0xb0f3	-0.1547
243	0x29fc	0.04675
244	0xb42d	-0.261
245	0xb3f7	-0.2489
246	0x3528	0.3223
247	0xb498	-0.287
248	0xa88f	-0.0356
249	0x3525	0.3215
250	0x3601	0.3752
251	0x3564	0.337
252	0x33fc	0.2495
253	0x36a1	0.4143
254	0x3026	0.1296
255	0xb97e	-0.6865

stages.s1.b2.block.0.1.weight f2 [32]
0	0x381e	0.5146
1	0x3c26	1.037
2	0x3980	0.6875
3	0x3ca4	1.16
4	0x3c90	1.141
5	0x3d25	1.286
6	0x3cc9	1.196
7	0x3d2e	1.295
8	0x3d35	1.302
9	0x3c02	1.002
10	0x3c90	1.141
11	0x3add	0.858
12	0x3bfb	0.9976
13	0x3d45	1.317
14	0x3ce6	1.225
15	0x3ddc	1.465
16	0x3d3e	1.311
17	0x3987	0.691
18	0x3bad	0.9595
19	0x37a1	0.4768
20	0x3d14	1.27
21	0x3dd0	1.453
22	0x3d56	1.334
23	0x3c3f	1.062
24	0x39cc	0.7246
25	0x3ccf	1.202
26	0x3d39	1.306
27	0x3d61	1.345
28	0x3cd8	1.211
29	0x3cc5	1.192
30	0x3cf0	1.234
31	0x3c15	1.0205

stages.s1.b2.block.0.1.bias f2 [32]
0	0x3616	0.3804
1	0x313d	0.1637
2	0xb40e	-0.2534
3	0xabbd	-0.06046
4	0x30c0	0.1484
5	0xb16b	-0.1693
6	0x2dcc	0.0906
7	0xa4b1	-0.01833
8	0xabf5	-0.06216
9	0xb142	-0.1643
10	0xb089	-0.1417
11	0x3008	0.126
12	0x316b	0.1693
13	0xa460	-0.01709
14	0xa4a8	-0.01819
15	0xae35	-0.097
16	0xa1d5	-0.01139
17	0x34ae	0.2925
18	0xada1	-0.08795
19	0xb838	-0.5273
20	0xae7f	-0.1015
21	0x25e9	0.02309
22	0x2638	0.02429
23	0xaaaa	-0.05206
24	0xb423	-0.2585
25	0x29b2	0.0445
26	0xac15	-0.0638
27	0x25f9	0.02333
28	0x316f	0.1698
29	0xa091	-0.00892
30	0xa871	-0.0347
31	0x30bb	0.1478

stages.s1.b2.block.0.1.running_mean f2 [32]
0	0xba92	-0.8213
1	0x36c8	0.4238
2	0x3817	0.511
3	0x2a92	0.05133
4	0xbc3b	-1.058
5	0x38e9	0.614
6	0xaab9	-0.05252
7	0xbcd0	-1.203
8	0x35f4	0.372
9	0xa2de	-0.01341
10	0x4020	2.062
11	0x2f09	0.1099
12	0x3a3d	0.78
13	0xb8b0	-0.586
14	0xbdbd	-1.435
15	0x3813	0.5093
16	0xbf40	-1.8125
17	0x279c	0.02972
18	0xbf4f	-1.827
19	0xc09e	-2.309
20	0x3bdc	0.9824
21	0xbdac	-1.418
22	0x3aae	0.835
23	0x3622	0.3833
24	0x3c4c	1.074
25	0x312c	0.1616
26	0x3c57	1.085
27	0x383c	0.5293
28	0x3569	0.3381
29	0x3db8	1.43
30	0x3a54	0.791
31	0xb8df	-0.609

stages.s1.b2.block.0.1.running_var f2 [32]
0	0x3c56	1.084
1	0x3e46	1.568
2	0x39c2	0.7197
3	0x3ddd	1.466
4	0x3bd8	0.9805
5	0x3a28	0.7695
6	0x3d5d	1.341
7	0x3c27	1.038
8	0x3ecc	1.699
9	0x3f42	1.814
10	0x3ff7	1.991
11	0x3f12	1.768
12	0x3e27	1.538
13	0x3aaf	0.8354
14	0x3e9e	1.654
15	0x3bcf	0.976
16	0x3e5b	1.589
17	0x40ce	2.402
18	0x421f	3.06
19	0x3f2d	1.794
20	0x3e09	1.509
21	0x3d3e	1.311
22	0x3b86	0.9404
23	0x3d5a	1.338
24	0x3c3c	1.059
25	0x4100	2.5
26	0x3cbc	1.184
27	0x3902	0.626
28	0x40c3	2.38
29	0x3c33	1.05
30	0x3c8b	1.136
31	0x3c98	1.148

stages.s1.b2.block.1.0.weight f2 [32, 1, 3, 3]
0	0xa960	-0.042
1	0x34d6	0.3022
2	0xb590	-0.3477
3	0x2d58	0.0835
4	0x284c	0.03357
5	0xb1bc	-0.1792
6	0x2e3f	0.0976
7	0x304d	0.1344
8	0xaed5	-0.10675
9	0x2dcb	0.0905
10	0x350b	0.3152
11	0x30fc	0.1558
12	0x308f	0.1425
13	0x312b	0.1615
14	0x9d6c	-0.005295
15	0x3517	0.318
16	0x2d37	0.0815
17	0xa46a	-0.01724
18	0x2936	0.0407
19	0x32e8	0.2158
20	0x360d	0.3782
21	0xb1bb	-0.1791
22	0x2b6d	0.058
23	0x2f2f	0.11224
24	0xb27e	-0.2029
25	0xaaa9	-0.05203
26	0x9d9a	-0.00547
27	0x317b	0.1713
28	0x28b1	0.03665
29	0xb1bd	-0.1793
30	0x2d82	0.08606
31	0x3178	0.1709
32	0x3408	0.252
33	0xab81	-0.05862
34	0x3411	0.2542
35	0xae81	-0.1016
36	0xb078	-0.1396
37	0x2eed	0.1082
38	0x350b	0.3152
39	0xac5a	-0.068
40	0xac1f	-0.0644
41	0x3250	0.1973
42	0xa55e	-0.02097
43	0xac8a	-0.0709
44	0x3661	0.3987
45	0xb320	-0.2227
46	0xb3f8	-0.249
47	0xaa5e	-0.04974
48	0xb5db	-0.366
49	0xb5bc	-0.3584
50	0x23c5	0.015175
51	0xb2b6	-0.2097
52	0xaf60	-0.11523
53	0x1990	0.002716
54	0xb0e7	-0.1532
55	0xb48e	-0.2847
56	0xb321	-0.2228
57	0x2813	0.03183
58	0xa4a6	-0.01816
59	0xb130	-0.1621
60	0x2cb4	0.0735
61	0x331c	0.2222
62	0x31a3	0.1761
63	0xaf7a	-0.1168
64	0x2d3f	0.082
65	0xb01e	-0.1287
66	0x23ea	0.01546
67	0x344a	0.268
68	0xb020	-0.1289
69	0x284c	0.03357
70	0x2da6	0.08826
71	0xb418	-0.2559
72	0x2e8b	0.10223
73	0x32c9	0.212
74	0x3023	0.1293
75	0x2c4f	0.0673
76	0x2797	0.02965
77	0xaddf	-0.09174
78	0x2f14	0.1106
79	0x2bcc	0.0609
80	0x337e	0.2341
81	0xb245	-0.1959
82	0xa959	-0.04178
83	0x1cae	0.00457
84	0x1d29	0.00504
85	0x2901	0.0391
86	0xa6cb	-0.02654
87	0x3189	0.173
88	0x36e0	0.4297
89	0x36f4	0.4346
90	0xb117	-0.159
91	0xaf55	-0.11456
92	0x339d	0.2379
93	0xaca5	-0.0726
94	0xac87	-0.07074
95	0x3041	0.1329
96	0xb402	-0.2505
97	0x284a	0.0335
98	0x341d	0.257
99	0xb1a2	-0.176
100	0xa98f	-0.04343
101	0x24a4	0.01813
102	0x2dfc	0.0935
103	0xaae6	-0.0539
104	0x3227	0.1923
105	0xb11c	-0.1597
106	0xac70	-0.06934
107	0xb488	-0.2832
108	0x235f	0.0144
109	0xb2e0	-0.2148
110	0xa740	-0.02832
111	0x2737	0.02818
112	0xb106	-0.157
113	0xa148	-0.010315
114	0xac01	-0.06256
115	0xb046	-0.1335
116	0xb530	-0.3242
117	0xb02a	-0.1301
118	0x2c94	0.07153
119	0xb33f	-0.2264
120	0xae13	-0.0949
121	0x335e	0.2302
122	0xb563	-0.3367
123	0x3358	0.2295
124	0x33ec	0.2476
125	0x2f36	0.1127
126	0x2d2a	0.0807
127	0xb07e	-0.1404
128	0xaf70	-0.1162
129	0xb46e	-0.2769
130	0xb40b	-0.2527
131	0xb124	-0.1606
132	0x2959	0.04178
133	0x287f	0.03513
134	0x292c	0.0404
135	0xab02	-0.05475
136	0xa8bd	-0.03702
137	0x240e	0.01584
138	0x2877	0.03488
139	0x3353	0.2289
140	0x364c	0.3936
141	0x2744	0.02838
142	0xa2b0	-0.01306
143	0xad7f	-0.0859
144	0xb202	-0.1877
145	0xb04f	-0.1346
146	0xb608	-0.377
147	0xb0b1	-0.1466
148	0x9e37	-0.00607
149	0xb2ab	-0.2084
150	0x2d6a	0.0846
151	0xa9c6	-0.0451
152	0x2e46	0.098
153	0xad73	-0.08514
154	0x2b80	0.0586
155	0xb159	-0.1671
156	0xa890	-0.03564
157	0x30d3	0.1508
158	0x21c9	0.0113
159	0xb5eb	-0.3699
160	0x264b	0.02458
161	0xb410	-0.254
162	0xb205	-0.1881
163	0x1835	0.002054
164	0x302b	0.1302
165	0xb222	-0.1917
166	0x341b	0.2566
167	0x3479	0.2795
168	0xb332	-0.2249
169	0x301e	0.1287
170	0x3185	0.1725
171	0x2bc7	0.06076
172	0x3500	0.3125
173	0x228e	0.0128
174	0x3122	0.1604
175	0x2c8f	0.0712
176	0xaeac	-0.10425
177	0xb2b7	-0.2098
178	0x2a96	0.05145
179	0x33ef	0.2479
180	0x307e	0.1404
181	0x3039	0.132
182	0x312d	0.1617
183	0xb3cd	-0.2438
184	0xb40c	-0.253
185	0xb628	-0.3848
186	0xb56a	-0.3384
187	0xb0e6	-0.1531
188	0xb22a	-0.1926
189	0x3383	0.2347
190	0x34ce	0.3003
191	0x2d94	0.08716
192	0x2ced	0.07697
193	0x2f08	0.10986
194	0x31d5	0.1823
195	0xaa47	-0.04904
196	0x9b51	-0.003572
197	0x25bb	0.02238
198	0x2008	0.00787
199	0x3392	0.2366
200	0x3184	0.1724
201	0xb486	-0.2827
202	0xb1ce	-0.1814
203	0x23f1	0.01551
204	0xb288	-0.2041
205	0xaac3	-0.05283
206	0x2a6e	0.05023
207	0xb0e9	-0.1534
208	0x3250	0.1973
209	0xb002	-0.1252
210	0xad16	-0.07947
211	0x30f0	0.1543
212	0xb41d	-0.257
213	0x9158	-0.0006523
214	0x317e	0.1716
215	0xb0c5	-0.149
216	0xb002	-0.1252
217	0xb0b2	-0.1467
218	0xb024	-0.1294
219	0xb098	-0.1436
220	0xb011	-0.1271
221	0xadce	-0.0907
222	0xb051	-0.1349
223	0xb280	-0.2031
224	0xb381	-0.2345
225	0x3511	0.3167
226	0xaa74	-0.0504
227	0x3148	0.165
228	0x2c81	0.0704
229	0xb146	-0.1648
230	0xa986	-0.04315
231	0xa7e9	-0.0309
232	0xae01	-0.0938
233	0x2c47	0.06683
234	0x2c1a	0.0641
235	0x1d16	0.004967
236	0xb57c	-0.3428
237	0x2f05	0.1097
238	0x9ead	-0.00652
239	0x3306	0.2195
240	0xaf79	-0.11676
241	0xa6ed	-0.02705
242	0x3460	0.2734
243	0xaa0a	-0.04718
244	0xae8e	-0.1024
245	0xb022	-0.1292
246	0x3042	0.133
247	0xa9c4	-0.04504
248	0x9e14	-0.005936
249	0x2ee8	0.1079
250	0xb6c1	-0.422
251	0xb0a4	-0.145
252	0x2ae4	0.05383
253	0xa782	-0.02933
254	0x332c	0.2241
255	0x25f6	0.02328

stages.s1.b2.block.1.1.weight f2 [32]
0	0x3b8d	0.944
1	0x3ae0	0.8594
2	0x3ab4	0.838
3	0x3b6a	0.927
4	0x3c7d	1.122
5	0x3d73	1.362
6	0x3914	0.635
7	0x3c30	1.047
8	0x3a6d	0.803
9	0x3c9a	1.15
10	0x3c34	1.051
11	0x3bf5	0.9946
12	0x3cf4	1.238
13	0x3d04	1.254
14	0x3a3d	0.78
15	0x3c2b	1.042
16	0x3c5e	1.092
17	0x3c19	1.024
18	0x3c87	1.132
19	0x3c53	1.081
20	0x3ca7	1.163
21	0x3c94	1.145
22	0x3b94	0.9473
23	0x3c28	1.039
24	0x3c2a	1.041
25	0x3a08	0.754
26	0x3c29	1.04
27	0x3c23	1.034
28	0x3ce2	1.221
29	0x3c0f	1.015
30	0x3b56	0.917
31	0x3c88	1.133

stages.s1.b2.block.1.1.bias f2 [32]
0	0xaf90	-0.11816
1	0x9f04	-0.00685
2	0xb4de	-0.3042
3	0xac08	-0.063
4	0x2d6c	0.0847
5	0x3268	0.2002
6	0xb4ba	-0.2954
7	0xb4d0	-0.3008
8	0xb495	-0.2864
9	0xb3d0	-0.2441
10	0x2e1e	0.0956
11	0xad13	-0.0793
12	0xacdd	-0.076
13	0x2fdf	0.123
14	0xa75b	-0.02873
15	0xb51d	-0.3196
16	0x2fe6	0.1234
17	0x33f0	0.248
18	0x9ccb	-0.00468
19	0xa9dc	-0.04578
20	0x27de	0.03073
21	0xb130	-0.1621
22	0x323b	0.1947
23	0xb519	-0.3186
24	0x2b7b	0.05844
25	0xad54	-0.08325
26	0xae86	-0.1019
27	0x3220	0.1914
28	0x3548	0.33
29	0xb348	-0.2275
30	0xaf77	-0.11664
31	0x3565	0.3372

stages.s1.b2.block.1.1.running_mean f2 [32]
0	0xa19f	-0.01098
1	0x38f2	0.618
2	0x2c48	0.0669
3	0x33d9	0.2452
4	0x355f	0.3357
5	0xb92c	-0.6465
6	0xb18a	-0.1731
7	0xaa69	-0.05008
8	0x35d8	0.3652
9	0x3368	0.2314
10	0xa8d1	-0.03763
11	0xb266	-0.2
12	0xb6c2	-0.4224
13	0x2c41	0.06647
14	0xb539	-0.3264
15	0x33cd	0.2438
16	0xb797	-0.4744
17	0xb44d	-0.2688
18	0x2fff	0.12494
19	0x21ec	0.011566
20	0xb727	-0.447
21	0x3879	0.559
22	0xb095	-0.1432
23	0xac42	-0.0665
24	0xb354	-0.229
25	0x2dca	0.09045
26	0x2d16	0.07947
27	0xb508	-0.3145
28	0x343e	0.2651
29	0x2d18	0.0796
30	0x34d8	0.3027
31	0xb1bf	-0.1796

stages.s1.b2.block.1.1.running_var f2 [32]
0	0x26e2	0.02689
1	0x3526	0.3218
2	0x2b3b	0.0565
3	0x2e8b	0.10223
4	0x33ad	0.2399
5	0x38a7	0.5815
6	0x3129	0.1613
7	0x2ee0	0.1074
8	0x3482	0.2817
9	0x3330	0.2246
10	0x2ee8	0.1079
11	0x2be6	0.0617
12	0x3167	0.1688
13	0x32ce	0.2126
14	0x2f41	0.11334
15	0x3578	0.3418
16	0x3349	0.2277
17	0x2dda	0.09143
18	0x2dc6	0.0902
19	0x15c7	0.0014105
20	0x3843	0.5327
21	0x342d	0.261
22	0x334f	0.2284
23	0x311b	0.1595
24	0x2ec7	0.1059
25	0x2be8	0.06177
26	0x2dd4	0.09106
27	0x3462	0.274
28	0x303c	0.1323
29	0x30e9	0.1534
30	0x35bc	0.3584
31	0x308f	0.1425

stages.s1.b2.block.2.0.weight f2 [16, 32, 1, 1]
0	0x343f	0.2654
1	0x38b8	0.59
2	0x330d	0.2203
3	0xaa81	-0.0508
4	0x32a9	0.2081
5	0xb8ad	-0.5845
6	0x3583	0.3445
7	0x2d9e	0.08777
8	0x35eb	0.3699
9	0xb76e	-0.4644
10	0x360c	0.378
11	0x2914	0.03967
12	0xbbfd	-0.9985
13	0x38b3	0.5874
14	0xb4ff	-0.3123
15	0xb4b1	-0.2932
16	0x2e86	0.1019
17	0x2fa8	0.1196
18	0xb6cf	-0.4255
19	0xae9c	-0.1033
20	0xb788	-0.4707
21	0xb488	-0.2832
22	0xb179	-0.171
23	0x37ca	0.4868
24	0x32b7	0.2098
25	0xb7b2	-0.481
26	0x32fb	0.2181
27	0x3124	0.1606
28	0x326d	0.2008
29	0x3969	0.6763
30	0xb428	-0.2598
31	0x2f71	0.1163
32	0x31c4	0.1802
33	0xb02d	-0.1305
34	0xac33	-0.0656
35	0x387f	0.562
36	0xab32	-0.0562
37	0x3487	0.283
38	0x3592	0.3481
39	0xb195	-0.1744
40	0xb5ed	-0.3704
41	0x1f86	0.007347
42	0x3a27	0.769
43	0xb0a6	-0.1453
44	0x31f8	0.1865
45	0xb8d4	-0.6035
46	0x364b	0.3933
47	0x3565	0.3372
48	0xba64	-0.799
49	0xb60c	-0.378
50	0x3556	0.3335
51	0x333e	0.2263
52	0x30e6	0.1531
53	0x3bd1	0.977
54	0xb500	-0.3125
55	0xb854	-0.541
56	0x2c07	0.0629
57	0xb4a6	-0.2905
58	0xb0fc	-0.1558
59	0xb1b3	-0.1781
60	0x3ce0	1.219
61	0xb3c3	-0.2426
62	0xb527	-0.322
63	0xb60a	-0.3774
64	0x3597	0.3494
65	0x305a	0.136
66	0xb7de	-0.4917
67	0x2d1a	0.0797
68	0x3d20	1.281
69	0x2dec	0.0925
70	0x3752	0.4575
71	0xbb0a	-0.88
72	0xb731	-0.4495
73	0x3ae9	0.864
74	0x3698	0.412
75	0x265b	0.02483
76	0xa569	-0.02113
77	0xb921	-0.641
78	0x3242	0.1956
79	0x3089	0.1417
80	0x3096	0.1433
81	0x3734	0.4502
82	0x299b	0.0438
83	0xb0d9	-0.1515
84	0x3645	0.3918
85	0xa3ed	-0.01548
86	0x22b0	0.01306
87	0x2eb6	0.10486
88	0xb102	-0.1565
89	0x2a3c	0.0487
90	0xb566	-0.3374
91	0x3b7f	0.937
92	0xb954	-0.666
93	0xa77e	-0.02927
94	0x31e2	0.1838
95	0x34a2	0.2896
96	0xb580	-0.3438
97	0x3772	0.4653
98	0x30da	0.1516
99	0x2652	0.02469
100	0x32b4	0.2095
101	0x2c73	0.0695
102	0x38cb	0.599
103	0x358c	0.3467
104	0x3626	0.3843
105	0x390c	0.631
106	0xb7b1	-0.4807
107	0xb3b0	-0.2402
108	0x3659	0.3967
109	0x32cd	0.2125
110	0x27f1	0.03102
111	0x3149	0.1652
112	0xaea1	-0.1036
113	0xb47a	-0.2798
114	0xb907	-0.6284
115	0xb6be	-0.4214
116	0xa4b6	-0.0184
117	0xb0bf	-0.1483
118	0x2706	0.02744
119	0xb57c	-0.3428
120	0x396c	0.6777
121	0xb253	-0.1976
122	0xb638	-0.3887
123	0xb816	-0.5107
124	0xba15	-0.7603
125	0xb88f	-0.57
126	0x375c	0.46
127	0x38c8	0.5977
128	0x31b6	0.1785
129	0x2fc4	0.12134
130	0xb315	-0.2213
131	0x3148	0.165
132	0xa2e7	-0.01348
133	0xb0cd	-0.15
134	0x359e	0.351
135	0xb465	-0.2747
136	0xb136	-0.1628
137	0xb97f	-0.687
138	0x28cc	0.03748
139	0xb5c0	-0.3594
140	0x26fc	0.02728
141	0x3141	0.1642
142	0x3532	0.3247
143	0x3527	0.322
144	0x2cd5	0.0755
145	0x35ec	0.37
146	0xb9b6	-0.714
147	0x2808	0.0315
148	0xb7bf	-0.4841
149	0xb94d	-0.6626
150	0x33ad	0.2399
151	0xa8dc	-0.03796
152	0xa661	-0.02492
153	0x37d0	0.4883
154	0x1771	0.001817
155	0xb4b1	-0.2932
156	0xb830	-0.5234
157	0xb83e	-0.5303
158	0x3b60	0.922
159	0xbab5	-0.8384
160	0xa9de	-0.04584
161	0xb446	-0.267
162	0x3571	0.34
163	0x2731	0.02809
164	0x3851	0.5396
165	0xb984	-0.6895
166	0xb244	-0.1958
167	0x370b	0.4402
168	0x37aa	0.479
169	0x3921	0.641
170	0xb60c	-0.378
171	0x306b	0.1381
172	0x9de1	-0.00574
173	0x36a5	0.4153
174	0xb42c	-0.2607
175	0x3640	0.3906
176	0xbbd7	-0.98
177	0x3247	0.1962
178	0xb54d	-0.3313
179	0x34a5	0.2903
180	0xb824	-0.5176
181	0x2cda	0.0758
182	0x397f	0.687
183	0x3136	0.1628
184	0x3146	0.1648
185	0x2f38	0.1128
186	0x2004	0.00784
187	0xb3db	-0.2455
188	0xb7e9	-0.4944
189	0x3291	0.2052
190	0xbb4f	-0.9136
191	0x2a8d	0.05118
192	0x32e7	0.2157
193	0xb51e	-0.3198
194	0x3374	0.2329
195	0x2c22	0.0646
196	0x29cc	0.0453
197	0xb5dc	-0.3662
198	0xa0ab	-0.00912
199	0xb815	-0.5103
200	0x38bf	0.5933
201	0x28d3	0.0377
202	0x34cc	0.2998
203	0x35e5	0.3684
204	0xb6cb	-0.4246
205	0xb2d2	-0.2131
206	0xb381	-0.2345
207	0xba5c	-0.795
208	0xb887	-0.566
209	0x3956	0.667
210	0xb234	-0.1938
211	0xb828	-0.5195
212	0x2ef7	0.1088
213	0xb279	-0.2023
214	0xb899	-0.5747
215	0x35c9	0.3616
216	0xb72d	-0.4485
217	0x325f	0.1991
218	0x3621	0.383
219	0xb436	-0.2632
220	0xb5aa	-0.354
221	0xb137	-0.163
222	0x365e	0.398
223	0xb53a	-0.3267
224	0xb076	-0.1394
225	0x297b	0.04282
226	0xb94a	-0.661
227	0xae73	-0.10077
228	0x39ab	0.7085
229	0xb2ed	-0.2164
230	0xa73d	-0.02827
231	0x3370	0.2324
232	0xade8	-0.0923
233	0x316f	0.1698
234	0xaf30	-0.1123
235	0xae7f	-0.1015
236	0xb766	-0.4624
237	0xb31e	-0.2224
238	0xbb00	-0.875
239	0xb246	-0.196
240	0x2d3e	0.0819
241	0xb859	-0.5435
242	0xafcb	-0.12177
243	0x316a	0.1692
244	0x328a	0.2043
245	0xb18c	-0.1733
246	0x2d28	0.08057
247	0x30b4	0.147
248	0x3176	0.1707
249	0xad93	-0.0871
250	0x37bd	0.4836
251	0xb6c2	-0.4224
252	0x28b2	0.03668
253	0xb7ff	-0.4998
254	0x26b9	0.02626
255	0xb524	-0.3213

stages.s1.b2.block.2.1.weight f2 [16]
0	0x3c91	1.142
1	0x3c12	1.018
2	0x3aaf	0.8354
3	0x3c85	1.13
4	0x39e1	0.735
5	0x3b65	0.9243
6	0x3a94	0.8223
7	0x3c9a	1.15
8	0x3ac5	0.846
9	0x3c7f	1.124
10	0x3c24	1.035
11	0x3a28	0.7695
12	0x3c6f	1.108
13	0x3c34	1.051
14	0x3c96	1.146
15	0x3c29	1.04

stages.s1.b2.block.2.1.bias f2 [16]
0	0x35fa	0.3735
1	0xb062	-0.137
2	0xab7e	-0.05853
3	0xa8be	-0.03705
4	0x2352	0.0143
5	0x315e	0.1677
6	0x36a5	0.4153
7	0xacf8	-0.07764
8	0x345b	0.2722
9	0xa393	-0.01479
10	0xaa5b	-0.04965
11	0xb104	-0.1567
12	0x31f3	0.1859
13	0xb0b1	-0.1466
14	0x1de6	0.00576
15	0x3473	0.278

stages.s1.b2.block.2.1.running_mean f2 [16]
0	0xb158	-0.167
1	0x37d5	0.4895
2	0x3d7c	1.371
3	0xb445	-0.2668
4	0xbd1b	-1.276
5	0xb8ac	-0.584
6	0xbd70	-1.359
7	0xbc79	-1.118
8	0xacb1	-0.0733
9	0x3e67	1.601
10	0x3652	0.395
11	0xb9e7	-0.738
12	0x3db3	1.425
13	0x3f80	1.875
14	0xc0d0	-2.406
15	0xb473	-0.278

stages.s1.b2.block.2.1.running_var f2 [16]
0	0x42a2	3.316
1	0x4462	4.383
2	0x4238	3.11
3	0x4195	2.791
4	0x3fb2	1.924
5	0x4460	4.375
6	0x3efc	1.746
7	0x3d92	1.393
8	0x43b7	3.857
9	0x414b	2.646
10	0x3d18	1.273
11	0x4138	2.61
12	0x41a0	2.812
13	0x42aa	3.332
14	0x3f84	1.879
15	0x4083	2.256

stages.s1.b3.block.0.0.weight f2 [32, 16, 1, 1]
0	0x3576	0.3413
1	0x21c5	0.01127
2	0xb06e	-0.1384
3	0xb280	-0.2031
4	0xb4df	-0.3044
5	0xb00d	-0.1266
6	0xbac2	-0.8447
7	0xb0c3	-0.1488
8	0x2e37	0.0971
9	0x342e	0.2612
10	0x1755	0.00179
11	0x2685	0.02547
12	0xb443	-0.2664
13	0xb639	-0.389
14	0x319e	0.1755
15	0x3524	0.3213
16	0x309d	0.1442
17	0x2f66	0.1156
18	0x351b	0.319
19	0x3a8a	0.8174
20	0xb476	-0.2788
21	0x3861	0.5474
22	0x30df	0.1522
23	0x369e	0.4136
24	0x3337	0.2255
25	0x3122	0.1604
26	0xad11	-0.07916
27	0x30f3	0.1547
28	0xaa02	-0.04694
29	0xb12f	-0.162
30	0x3616	0.3804
31	0xb360	-0.2305
32	0xaff6	-0.1244
33	0xb284	-0.2036
34	0x27be	0.03024
35	0xbadd	-0.858
36	0x371a	0.4438
37	0xaf23	-0.1115
38	0x327d	0.2028
39	0xadea	-0.0924
40	0x2f99	0.1187
41	0xb199	-0.1749
42	0x3481	0.2815
43	0x3861	0.5474
44	0x24d3	0.01884
45	0x36f1	0.4338
46	0x38b7	0.5894
47	0xb4ce	-0.3003
48	0x3861	0.5474
49	0x2e66	0.1
50	0x328a	0.2043
51	0xb201	-0.1876
52	0xb809	-0.5044
53	0xad0d	-0.0789
54	0xa10e	-0.00987
55	0x2d74	0.0852
56	0xaaab	-0.0521
57	0x3065	0.1373
58	0x34a3	0.2898
59	0xadce	-0.0907
60	0xad14	-0.07935
61	0xb6fa	-0.436
62	0x3665	0.3997
63	0x339e	0.238
64	0xb129	-0.1613
65	0x31ed	0.1852
66	0x27da	0.03067
67	0xb5eb	-0.3699
68	0x3430	0.2617
69	0xb8d9	-0.606
70	0xb254	-0.1978
71	0xb0a2	-0.1448
72	0xb4b5	-0.2942
73	0xb851	-0.5396
74	0xb42f	-0.2615
75	0xbc05	-1.005
76	0xb468	-0.2754
77	0xb7bf	-0.4841
78	0xa64e	-0.02463
79	0xb699	-0.4124
80	0x3632	0.3872
81	0x3486	0.2827
82	0xb995	-0.6978
83	0xb897	-0.5737
84	0xb773	-0.4656
85	0xb4f0	-0.3086
86	0x3411	0.2542
87	0xa57e	-0.02145
88	0xb4df	-0.3044
89	0xb289	-0.2042
90	0x2691	0.02565
91	0x307d	0.1403
92	0xafab	-0.1198
93	0x3749	0.4553
94	0xa95e	-0.04193
95	0xb463	-0.2742
96	0xb4d6	-0.3022
97	0xb2d9	-0.214
98	0x36c5	0.423
99	0x3591	0.348
100	0x37a4	0.4775
101	0x337a	0.2336
102	0x2fc5	0.1214
103	0x30ac	0.146
104	0xb6e3	-0.4304
105	0xa964	-0.0421
106	0x3783	0.4695
107	0x31c5	0.1803
108	0x30c6	0.1492
109	0xafcf	-0.122
110	0x3892	0.5713
111	0x3661	0.3987
112	0xb712	-0.442
113	0xb206	-0.1882
114	0xad21	-0.08014
115	0x327e	0.2029
116	0xa965	-0.04214
117	0xa536	-0.02036
118	0x34c8	0.2988
119	0x33bd	0.2418
120	0xafb2	-0.12024
121	0x3430	0.2617
122	0x311e	0.1599
123	0x3723	0.446
124	0x3366	0.2312
125	0x2c46	0.0668
126	0xb6fd	-0.4368
127	0xb50a	-0.315
128	0xb5a2	-0.352
129	0xa423	-0.01616
130	0x31cc	0.1812
131	0xb91e	-0.6396
132	0xb529	-0.3225
133	0x373f	0.453
134	0xb34b	-0.2279
135	0xade9	-0.09235
136	0xb0fb	-0.1556
137	0x3611	0.3792
138	0xb14d	-0.1656
139	0x306e	0.1384
140	0xacc6	-0.0746
141	0x3483	0.282
142	0x37ad	0.4797
143	0xba31	-0.774
144	0x31da	0.1829
145	0x320d	0.1891
146	0x360a	0.3774
147	0xb478	-0.2793
148	0x2f81	0.11725
149	0xb44c	-0.2686
150	0x3015	0.1276
151	0x2aad	0.05215
152	0xb437	-0.2634
153	0x382c	0.5215
154	0xb21f	-0.1913
155	0xb534	-0.3252
156	0x2956	0.0417
157	0xb090	-0.1426
158	0x3a3f	0.781
159	0xb5bc	-0.3584
160	0x368c	0.4092
161	0x33bd	0.2418
162	0x2ad5	0.05338
163	0x3487	0.283
164	0xb2da	-0.2141
165	0x32a1	0.2072
166	0xa799	-0.02968
167	0x349d	0.2883
168	0xb5c9	-0.3616
169	0x2492	0.01785
170	0x352d	0.3235
171	0xb661	-0.3987
172	0x370d	0.4407
173	0xa7ce	-0.03049
174	0xb466	-0.275
175	0x213a	0.01021
176	0x2888	0.0354
177	0x1cd9	0.004734
178	0xa011	-0.00794
179	0xb0a5	-0.1451
180	0xad85	-0.08624
181	0x3a0b	0.7554
182	0x340d	0.2532
183	0x3003	0.1254
184	0x33ed	0.2477
185	0xb1b3	-0.1781
186	0x33a8	0.2393
187	0xb4b7	-0.2947
188	0xb2dd	-0.2145
189	0x2fea	0.12366
190	0xb573	-0.3406
191	0xb44c	-0.2686
192	0xaf69	-0.1158
193	0x344d	0.2688
194	0x3084	0.1411
195	0xb5fb	-0.3738
196	0x341d	0.257
197	0x330b	0.2201
198	0x3567	0.3376
199	0x2951	0.04153
200	0xb704	-0.4385
201	0xaec7	-0.1059
202	0xb083	-0.141
203	0x3186	0.1726
204	0xb298	-0.206
205	0x31ac	0.1772
206	0x20e8	0.00958
207	0xb9e6	-0.7373
208	0xba24	-0.7676
209	0x3468	0.2754
210	0x3335	0.2252
211	0x2d94	0.08716
212	0xb266	-0.2
213	0xb912	-0.634
214	0xb579	-0.342
215	0xb5db	-0.366
216	0x371a	0.4438
217	0x3448	0.2676
218	0x2c34	0.0657
219	0x33aa	0.2395
220	0xb8b3	-0.5874
221	0x317d	0.1715
222	0x345b	0.2722
223	0x3632	0.3872
224	0xb88c	-0.5684
225	0x381b	0.513
226	0x2a17	0.04758
227	0xb438	-0.2637
228	0x29fb	0.04672
229	0xb64c	-0.3936
230	0x32d0	0.2129
231	0xb39c	-0.2378
232	0xb08e	-0.1423
233	0x3325	0.2233
234	0xb331	-0.2247
235	0x35c3	0.36
236	0x2dbc	0.0896
237	0x3208	0.1885
238	0x2ac5	0.0529
239	0xb19d	-0.1754
240	0xb2c8	-0.2119
241	0x324c	0.1968
242	0xb125	-0.1608
243	0xb6b6	-0.4194
244	0x392f	0.648
245	0x2e72	0.1007
246	0xb27b	-0.2025
247	0xad51	-0.08307
248	0xbc41	-1.063
249	0x2ed2	0.10657
250	0xb650	-0.3945
251	0xb404	-0.251
252	0xb1bc	-0.1792
253	0xb531	-0.3245
254	0x34d5	0.302
255	0xb211	-0.1896
